RNN/output/stat_gen2_pop2_in1_h20_o1_reduce5wt.pt (torch_old, 2672 bytes, 3 tensors)

i2h.weight f4 [20, 21]
0	0x3e2ad70d	0.16683598
1	0x3e397834	0.1811226
2	0xbd5165c4	-0.051122442
3	0x3e4d44b5	0.20045741
4	0xbd43d6dc	-0.047812328
5	0x3d345d5c	0.044034347
6	0xbdd9949c	-0.10624048
7	0x3e033b37	0.12815557
8	0x3e44fc3b	0.19236843
9	0xbe23eed7	-0.16009079
10	0x3e4239f1	0.18967415
11	0x3d27496c	0.040841505
12	0x3e251734	0.16122133
13	0x3cf219e8	0.029553369
14	0x3dd77eaa	0.10522206
15	0xbcfc6618	-0.0308104
16	0x3e2c4226	0.16822109
17	0x3d041d5c	0.03225456
18	0xbdd0a2b4	-0.10187283
19	0x3d63d554	0.055623367
20	0xbdcde86e	-0.10054098
21	0x3f9827ff	1.1887206
22	0x3f804433	1.0020813
23	0xbfbb79d2	-1.4646552
24	0xbcf7189c	-0.030163102
25	0xbdee79df	-0.11644339
26	0x3f640b2c	0.89079547
27	0xbf45f269	-0.77323014
28	0x3fa98c4e	1.3245943
29	0xbfe2c125	-1.7715193
30	0x3dc67080	0.096894264
31	0x3ebc1553	0.3673502
32	0x3ef24589	0.47318676
33	0x3f167232	0.58768
34	0xbeb848bd	-0.35992995
35	0xbcd0b9d1	-0.02547923
36	0xbe1d002e	-0.153321
37	0x3f8b27c9	1.0871516
38	0x3f2e1d86	0.680138
39	0x3f94b291	1.1616994
40	0xbe34cf61	-0.17657234
41	0x3f057d4c	0.5214431
42	0x3f908d22	1.129307
43	0xbf557825	-0.8338645
44	0xbfa8e9ef	-1.3196391
45	0xbfa5f787	-1.2966164
46	0x3ea7612c	0.32691324
47	0x3cc0a2a4	0.023515053
48	0x3e923897	0.285588
49	0x3ca6a6d1	0.020343216
50	0x3f6dccfd	0.9289091
51	0xbf6c8436	-0.9238924
52	0x3f92dd7d	1.1473843
53	0x3f710b26	0.94157636
54	0x3ee201b6	0.4414193
55	0xbfdf864b	-1.7462858
56	0x3f35d8e6	0.71034086
57	0xbdd06756	-0.1017596
58	0xbf776203	-0.9663393
59	0xbfb629e6	-1.4231536
60	0xbf48dead	-0.78464776
61	0x3fdc9e85	1.7235876
62	0x3e1bbfee	0.15209934
63	0xbe32e6b1	-0.17470814
64	0xbfe0c8c7	-1.7561272
65	0x3fb68422	1.4259074
66	0x3f034183	0.5127184
67	0xbece2b2e	-0.40267318
68	0xbf54491e	-0.8292407
69	0x3ea70dca	0.32627708
70	0xbe106b06	-0.14103326
71	0x3f4d018a	0.80080473
72	0x3f6cd135	0.92506725
73	0x3fd19cc2	1.6375964
74	0xbf6e018a	-0.929711
75	0xbf5aa7eb	-0.8541247
76	0x3f5cd416	0.8626112
77	0xbef9af66	-0.4876663
78	0x3f25a4a3	0.6470434
79	0xbfed2592	-1.852709
80	0xbfaed48e	-1.3658617
81	0x3ee6a19a	0.45045167
82	0xbc9221d2	-0.017838392
83	0x3f150de4	0.5822432
84	0xbf31f666	-0.695166
85	0x3fa07b48	1.2537622
86	0x3db8b1e2	0.090183035
87	0x3fff3b39	1.9939948
88	0xbf1ae04c	-0.604985
89	0x3ef1f37d	0.4725608
90	0xbf812628	-1.0089769
91	0xbfa19bb6	-1.2625644
92	0xbe32d4c1	-0.17463972
93	0x3f0c6582	0.5484239
94	0x3eea517b	0.4576529
95	0x3f77ba7a	0.96768916
96	0xbf2ad7ff	-0.66735834
97	0xbf9a8caa	-1.2074177
98	0x3e382a9c	0.17985004
99	0xbffd83b6	-1.980582
100	0x3f248dde	0.6427897
101	0xbebd4b02	-0.3697129
102	0xbe7be095	-0.2459739
103	0x3ea8a4dc	0.32938278
104	0x3f32870f	0.69737333
105	0x3ea44670	0.3208499
106	0x3d18225b	0.03714214
107	0x3e2ef570	0.17085814
108	0xbf3a0be4	-0.72674394
109	0xc0754833	-3.8325317
110	0xbf73e314	-0.9526837
111	0xbeba32d8	-0.36366916
112	0xbf9fbc04	-1.2479253
113	0xbdbdaca8	-0.09261447
114	0x3f2742dd	0.653364
115	0x3e27a0d6	0.16369948
116	0x3fac3d15	1.3456141
117	0xbf8f2207	-1.1182259
118	0xbef15d62	-0.47141558
119	0x3ef4b229	0.47792175
120	0x3f59d7b1	0.85094744
121	0x3ebcd929	0.3688443
122	0x3f87f729	1.0622302
123	0x3fe1c83a	1.7639229
124	0xbd4629b7	-0.048379626
125	0x3f261a96	0.64884317
126	0xbfb1ffc0	-1.3906174
127	0xbf35a920	-0.7096119
128	0x3f6e48c1	0.93079764
129	0xbed940b5	-0.4243218
130	0xbef6df78	-0.48217368
131	0x3ef480da	0.47754556
132	0xbfbe94de	-1.4889181
133	0xbfbe36e7	-1.4860505
134	0x3e8dc7af	0.2769141
135	0xbd085478	-0.03328368
136	0xbe463d36	-0.19359288
137	0xbf4460f8	-0.7671046
138	0x3f8559b9	1.0418006
139	0x3f7975ce	0.9744538
140	0x3ee80d69	0.4532273
141	0x3f956905	1.1672674
142	0x3f4b05d1	0.7930575
143	0xbe66902a	-0.22515932
144	0x3f38b39a	0.7214905
145	0x3e00cc86	0.1257802
146	0x3fb3d994	1.4050775
147	0xbf5c0d87	-0.8595814
148	0x3fa4075d	1.2814747
149	0x3f7be056	0.98389184
150	0xbd78390d	-0.060601283
151	0xbec4aeea	-0.384147
152	0x3f09aaa4	0.53776
153	0xbf6dd8e8	-0.929091
154	0x3f90eb84	1.1321874
155	0xbf3b968e	-0.73276603
156	0x3f935377	1.1509846
157	0xbf322e69	-0.69602066
158	0x3f03f7df	0.51550096
159	0x3f39486b	0.72376126
160	0x3f2a45ea	0.6651293
161	0x3f86e23b	1.053779
162	0x3f3a19ab	0.72695416
163	0xbfeda493	-1.8565849
164	0xbfc0f7f9	-1.5075675
165	0xbe350855	-0.1767896
166	0x3f23cae8	0.63981485
167	0x3f30f6f6	0.6912683
168	0xbd93d884	-0.072190315
169	0xbf16d0dd	-0.5891245
170	0x3f91e0dd	1.1396748
171	0x3ec0730d	0.37587777
172	0xc0298ea2	-2.6493306
173	0x40043726	2.065866
174	0x3f8247c7	1.0178155
175	0xbff80cac	-1.9378867
176	0xbf0c3704	-0.5477145
177	0xbe3b0a6e	-0.18265697
178	0xbf9e611e	-1.2373388
179	0xbe2c9e72	-0.16857317
180	0x3f305ada	0.6888863
181	0x3dd496b5	0.103803076
182	0xbf32ead1	-0.6988955
183	0xbf005aa7	-0.50138324
184	0xbe2f8aca	-0.17142788
185	0xbfc53fb6	-1.5410068
186	0xbea910eb	-0.3302072
187	0xbf3d4af7	-0.7394251
188	0xbfc15266	-1.5103271
189	0x3e36a8d8	0.17837846
190	0xbe37a74c	-0.17934912
191	0xbf0ef140	-0.5583687
192	0xbf6162bb	-0.88041276
193	0xbf610e6d	-0.87912637
194	0xbf83f8ef	-1.0310344
195	0x3e52d437	0.20588766
196	0xbf553c95	-0.83295566
197	0xbf51fcda	-0.82026446
198	0xbf51faad	-0.82023126
199	0x3f69723b	0.91189927
200	0xbfcfb377	-1.6226643
201	0x3f2720de	0.65284526
202	0x3eff7249	0.4989188
203	0xbf805ebe	-1.0028913
204	0x3d8afa9f	0.067860834
205	0x3f1827b2	0.5943557
206	0xbfb70818	-1.4299345
207	0xbf36b160	-0.713644
208	0xbfcf1d31	-1.6180784
209	0xbf6bb7f9	-0.92077595
210	0x3e0e7ad5	0.13914044
211	0x3dce5657	0.10075062
212	0xbe458596	-0.1928924
213	0xbe0660a6	-0.13122806
214	0xbd0d0f4c	-0.034438416
215	0x3e5828c1	0.21109296
216	0x3d014c40	0.03156686
217	0xbd67792c	-0.056512043
218	0x3db8e4c2	0.09028007
219	0xbdaa384a	-0.083115175
220	0xbe10a1f2	-0.14124277
221	0x3e2318d8	0.15927446
222	0xbdcb35fd	-0.09922407
223	0xbd332e68	-0.04374543
224	0xbe5e4b4c	-0.21708411
225	0x3e158d4d	0.14604683
226	0x3e294c1f	0.16532944
227	0x3da2e02a	0.07952912
228	0xbe1bcf3c	-0.15215772
229	0xbe5c896b	-0.21536796
230	0xbe357c4d	-0.17723198
231	0xbfebabb2	-1.8411772
232	0x3fadba80	1.357254
233	0x3f92fcf0	1.148344
234	0x3f7d599c	0.9896486
235	0x3df2c7ca	0.11854513
236	0xbf8c72c0	-1.0972519
237	0x3f582819	0.84436184
238	0x3f9c8add	1.2229878
239	0xbf1b7047	-0.60718197
240	0xbfe67c5e	-1.8006704
241	0x3fe759ae	1.8074243
242	0xbfa8707b	-1.3159326
243	0xbe03a031	-0.12854077
244	0xbf10bd9e	-0.5653933
245	0x3e82f243	0.25575456
246	0xbfc4d4cd	-1.5377442
247	0xbe37eada	-0.17960683
248	0xbde63685	-0.112408675
249	0x3e8adcca	0.27121574
250	0x3f8fa34c	1.1221709
251	0x4032d5e3	2.7943046
252	0x40149345	2.3214886
253	0xbf73216b	-0.94972867
254	0x3fd3051c	1.6485934
255	0xbff36a32	-1.9016783

i2h.bias f4 [20]
0	0xbc2caf60	-0.0105398595
1	0xbda37652	-0.07981552
2	0x3e9af495	0.30264726
3	0x3e048b5f	0.12943791
4	0x3e33b1bf	0.17548274
5	0x3f8034a2	1.0016062
6	0x400044c6	2.0041976
7	0xbe4efafe	-0.20212933
8	0xbda2c832	-0.079483405
9	0xbf782641	-0.9693337
10	0x3dd2bb66	0.1028965
11	0xbfdb7ac2	-1.7146838
12	0xbdb0afee	-0.08627306
13	0xbf39a399	-0.72515255
14	0xbe31f5a8	-0.17378867
15	0x3e0d3a47	0.13791762
16	0xbdad6188	-0.08465868
17	0x3f9cd3cc	1.2252135
18	0xbd30a214	-0.04312332
19	0x3e390a7c	0.18070406

h2o.weight f4 [1, 20]
0	0xbd8a640a	-0.06757362
1	0x3e267e22	0.16259053
2	0xbbbe7c20	-0.0058131367
3	0x3e32bc8a	0.17454734
4	0x3e5c2746	0.21499357
5	0xbddf1b84	-0.1089392
6	0xbe2709c4	-0.16312319
7	0x3e37b4ae	0.17940018
8	0x3e336d3c	0.17522138
9	0xbe2ed4fd	-0.17073436
10	0xbc8d9a68	-0.01728554
11	0xbe61cbf0	-0.22050452
12	0xbe3b6ff8	-0.18304431
13	0x3d30e5e0	0.043187976
14	0x3d73a8c8	0.059487134
15	0x3d4226f0	0.047400415
16	0xbd79461c	-0.060857877
17	0x3e533ee8	0.20629466
18	0x3d02f3d8	0.03197083
19	0xbe071d1a	-0.13194695
