RNN/output/stat_gen2_pop2_in1_h10_o1_reduce5wt.pt (torch_old, 1333 bytes, 3 tensors)

i2h.weight f4 [10, 11]
0.23051703 0.25025678 -0.07063581 0.2769717 -0.06606221 0.060842186 -0.14679232 0.17707238
0.26579517 -0.22119722 0.2620725 0.056430638 0.22275925 0.04083386 0.14538518 -0.04257068
0.23243082 0.044566065 -0.14075753 0.076854736 -0.13891733 -0.035359085 -0.12246135 0.20001388
-0.23800406 -0.13899985 -0.085139185 -0.18129048 0.028457582 -0.29779646 0.27229762 -0.25612432
0.23277503 0.050177276 -0.097902104 0.18631893 0.046990782 0.24361014 0.03296113 -0.095088586
0.081011176 -0.081763685 0.12689331 0.26919603 0.17429152 -0.13181248 0.17405185 0.053948283
0.15311801 -0.18377268 -0.29846862 -0.11649208 -0.23126608 0.24740177 0.08684471 0.12489009
0.095356345 -0.0052450895 0.23596525 -0.21422791 0.018984288 -0.20579362 0.09297162 -0.103835166
0.092387974 -0.06281732 0.25007105 -0.17870635 -0.17982076 -0.17983162 0.2711922 0.10047901
0.29012948 -0.24883015 -0.2990619 -0.23589155 -0.2028234 0.122124195 0.10796392 0.2505331
-0.1557081 -0.20554385 0.15997532 -0.121872246 0.18299443 -0.071548834 0.17247835 -0.23426467
-0.15215763 0.09192371 0.06374177 -0.07687296 0.17972171 0.20497018 -0.21864799 -0.16096732
0.27608246 -0.101739734 -0.10689071 -0.29174075 -0.17266656 0.075318635 -0.039797425 -0.21886286
0.0070724487 -0.20595682 -0.25580123 -0.16603103 -0.26388636 -0.19198376
00000000: a80c 6c3e a821 803e 82a9 90bd 3ccf 8d3e
00000010: a04b 87bd a835 793d ba50 16be 7652 353e
00000020: 4e16 883e 8681 62be 5e2e 863e d023 673d
00000030: 001b 643e 6841 273d dadf 143e 985e 2ebd
00000040: 5802 6e3e e88a 363d be22 10be 0466 9d3d
00000050: 5840 0ebe b0d4 10bd 04cd fabd 70d0 4c3e
00000060: 56b7 73be fa55 0ebe 745d aebd 36a4 39be
00000070: e01f e93c c778 98be 986a 8b3e ba22 83be
00000080: 945c 6e3e b086 4d3d e680 c8bd 64ca 3e3e
00000090: 6879 403d f074 793e 4002 073d cebd c2bd
000000a0: 30e9 a53d b873 a7bd 52f0 013e 10d4 893e
000000b0: 7a79 323e daf9 06be a63a 323e e0f8 5c3d
000000c0: f8ca 1c3e e82e 3cbe e1d0 98be 6693 eebd
000000d0: 04d1 6cbe e456 7d3e a4db b13d 60c6 ff3d
000000e0: 304a c33d 00df abbb e0a0 713e 905e 5bbe
000000f0: f084 9b3c 90bb 52be e867 be3d 88a7 d4bd
00000100: e835 bd3d 5ea6 80bd 5009 803e ccfe 36be
00000110: ef22 38be c825 38be b4d9 8a3e f0c7 cd3d
00000120: da8b 943e 55cd 7ebe a41e 99be 8e8d 71be
00000130: f0b0 4fbe 401c fa3d 301c dd3d e045 803e
00000140: f271 1fbe 167a 52be 92d0 233e 2898 f9bd
00000150: e462 3b3e 3288 92bd 2a9e 303e 14e3 6fbe
00000160: 36cf 1bbe 8042 bc3d 0c8b 823d 926f 9dbd
00000170: f808 383e b4e3 513e 42e5 5fbe 9ed4 24be
00000180: ae5a 8d3e ec5c d0bd 84e9 dabd 0b5f 95be
00000190: 81cf 30be a840 9a3d a002 23bd 961d 60be
000001a0: 00c0 e73b 58e6 52be 61f8 82be 0a04 2abe
000001b0: 1d1c 87be 6497 44be

i2h.bias f4 [10]
0.3013934 0.056947947 0.09291366 -0.2812149 -0.19802475 -0.10035981 0.04714766 -0.26530626
-0.1299131 -0.18050537
00000000: 3c50 9a3e 4042 693d 8449 be3d 66fb 8fbe
00000010: 00c7 4abe 7289 cdbd e81d 413d 39d6 87be
00000020: f107 05be 66d6 38be

i2o.weight f4 [1, 11]
0.0008355677 -0.112193346 -0.020893455 -0.20431304 -0.20695594 -0.17590226 -0.10320656 -0.23797715
0.25280815 -0.05983916 0.25941938
00000000: 000a 5b3a a0c5 e5bd c028 abbc 7037 51be
00000010: 42ec 53be b91f 34be f65d d3bd 48b0 73be
00000020: 1270 813e e819 75bd 9ed2 843e
