RNN/output/stat_gen2_pop2_in1_h10_o1_reduce5wt.pt (torch_old, 1333 bytes, 3 tensors)

i2h.weight f4 [10, 11]
000000 29 b9 82 be 0c aa 55 3e 8e e6 a9 bd b8 b3 ec bd
       -0.2553189 0.20865649 -0.08295928 -0.11557716
000010 22 24 80 be ed 78 99 be 04 ac b0 3d 58 e3 86 bd
       -0.25027567 -0.29975072 0.086265594 -0.06586331
000020 b8 67 f0 3d bd 60 7d be 24 39 65 3e 29 a3 62 be
       0.11738533 -0.24743934 0.22385079 -0.22132553
000030 fc 3f 55 bd dc f9 80 3d 3a 64 1f 3e 50 41 79 3e
       -0.052062973 0.06297657 0.15565577 0.24341321
000040 d4 a0 8c 3e 15 d0 74 be 40 67 9b 3d e5 cc 04 be
       0.27466452 -0.23907502 0.07588053 -0.12968786
000050 10 56 07 bd 34 18 67 be dc 9c 8c 3e 00 9b 62 be
       -0.03304106 -0.22567827 0.27463424 -0.2212944
000060 b4 02 25 3e 24 03 d9 3d a4 a8 c8 3d 59 ec 26 be
       0.16114312 0.10596302 0.09797791 -0.16301097
000070 7c 51 8c 3e e0 b1 87 3d 88 de 1e 3d ec 0a 88 be
       0.27405918 0.06625724 0.03878644 -0.26570833
000080 d4 9b 01 3e 28 46 39 bd dd 71 0d be 4e 99 84 3e
       0.126571 -0.04523292 -0.13812967 0.25898212
000090 78 ab 89 3d a2 d2 2a be e9 44 1c be 60 e9 6b bc
       0.06722158 -0.16681913 -0.15260662 -0.014398903
0000a0 8a 64 2c 3e 7a ca 9d bd e4 29 30 be f4 74 d3 bd
       0.16835228 -0.07704635 -0.1720348 -0.103250414
0000b0 57 a8 66 be 08 38 dc 3d ac fb 6e 3e 70 55 91 be
       -0.22525154 0.107528746 0.23338193 -0.28385496
0000c0 e8 69 8f 3d 1a 7f 1f 3e a8 f0 5f 3d c0 e7 db bd
       0.07002622 0.15575829 0.054672867 -0.10737562
0000d0 fe 25 21 3e 3e 40 22 3e f8 e5 e6 3d a8 03 59 bd
       0.15737149 0.15844819 0.11274332 -0.052982002
0000e0 76 83 a3 bd d0 1e 04 3d 88 2a 5a bd a4 03 b8 bd
       -0.079840586 0.032255948 -0.053263217 -0.089850694
0000f0 86 5a 45 3e 36 ab 84 3e 80 85 f4 bc 58 41 8a bd
       0.19272813 0.25911874 -0.029848814 -0.067507446
000100 c0 2b 90 3b 70 7a 93 bc ec 73 94 3d fc 0a ad 3d
       0.0043997467 -0.018002719 0.07248673 0.08449361
000110 08 36 8c be 0a e1 e3 bd b4 00 82 3e 60 8c f0 3d
       -0.27384973 -0.11126907 0.2539116 0.117455244
000120 a0 b3 75 bc 4e 25 3a be b4 e4 3c be 6f 48 8a be
       -0.014996439 -0.18178293 -0.18446618 -0.27008387
000130 be 47 c9 bd dc 87 d0 3d 3a dd 44 3e 46 8c 0e 3e
       -0.09828137 0.10182163 0.19225016 0.13920698
000140 33 75 88 be 52 ab 39 be f0 e6 42 bd 5c 55 95 3e
       -0.26651916 -0.1813176 -0.04758352 0.29166687
000150 90 a6 32 3d c8 e9 9f bd 98 77 ff 3d 4a 31 eb bd
       0.043615878 -0.07808262 0.124739826 -0.114840105
000160 b2 d6 47 be d8 59 61 3e 5a 63 0c be 14 93 77 bd
       -0.19515494 0.22006929 -0.13709775 -0.060443
000170 5d 92 99 be c0 a2 4e 3e fc ea 69 3e 88 0b e1 3d
       -0.2999448 0.20179272 0.22843546 0.109885275
000180 21 48 57 be 90 5b 98 be 22 c2 7a be b0 3b 66 3e
       -0.21023609 -0.29757357 -0.24488118 0.22483706
000190 44 3b 14 3e 00 e8 81 3e 5a be 21 3e 80 48 9c 3d
       0.14475733 0.25372314 0.1579527 0.07631016
0001a0 80 80 41 bb ef cd 6a be 60 43 84 be b1 64 90 be
       -0.0029526055 -0.2293012 -0.25832653 -0.2820182
0001b0 70 c7 fc 3d d0 95 17 be
       0.12342727 -0.14803243

i2h.bias f4 [10]
000000 88 8b 78 bd 96 af 31 be 5c 0b 61 bd ae 4e 59 be
       -0.060679942 -0.17352137 -0.054942474 -0.2122142
000010 94 bd 49 be 70 d4 cc 3d 72 84 b7 bd 6e 9a 3e 3e
       -0.19701225 0.10001457 -0.08960809 0.18613598
000020 10 19 c6 bd b5 7c 62 be
       -0.09672749 -0.22117884

i2o.weight f4 [1, 11]
000000 80 e6 59 bd 24 aa 15 be e0 ea bc bd 94 f6 92 be
       -0.053198338 -0.14615685 -0.09224486 -0.2870375
000010 d2 bd 2c 3e 95 f3 56 be 9a 2e 1b 3e d4 1a 0c 3e
       0.16869286 -0.20991357 0.15154496 0.13682109
000020 54 94 5c 3e 54 d3 6c be e0 0c 5e 3e
       0.21540958 -0.2312749 0.21684599
