RNN/output/stat_gen2_pop4_in1_h20_o1_reduce5wt.pt (torch_old, 2672 bytes, 3 tensors)

i2h.weight f4 [20, 21]
0	0x3e2ad70d	0.16683598
1	0x3e397833	0.18112259
2	0xbd5165c4	-0.051122442
3	0x3e4d44b5	0.20045741
4	0xbd43d6dc	-0.047812328
5	0x3d345d5c	0.044034347
6	0xbdd9949c	-0.10624048
7	0x3e033b37	0.12815557
8	0x3e44fc3b	0.19236843
9	0xbe23eed7	-0.16009079
10	0x3e4239f1	0.18967415
11	0x3d27496c	0.040841505
12	0x3e251733	0.16122131
13	0x3cf219e8	0.029553369
14	0x3dd77eaa	0.10522206
15	0xbcfc6618	-0.0308104
16	0x3e2c4225	0.16822107
17	0x3d041d5c	0.03225456
18	0xbdd0a2b3	-0.101872824
19	0x3d63d554	0.055623367
20	0xbdcde86e	-0.10054098
21	0xbcd1a448	-0.02559103
22	0xbdb5842e	-0.08863102
23	0x3e143bcf	0.1447594
24	0xbe306389	-0.1722547
25	0xbdce07be	-0.100600705
26	0xbd7c6470	-0.061619222
27	0xbe065b80	-0.13120842
28	0x3ca8b920	0.020596087
29	0xbe5cb3b4	-0.21552926
30	0x3e49cde9	0.19707455
31	0xbe3dd16a	-0.18536916
32	0x3e2c8373	0.16847019
33	0x3d14bfb4	0.036315635
34	0xbd911d20	-0.07085633
35	0x3e0a1587	0.13484775
36	0x3d0b4d74	0.034009412
37	0x3e348b27	0.17631207
38	0x3cc36ca0	0.023855507
39	0xbd8cf18a	-0.068820074
40	0x3d7027ac	0.058631584
41	0xbd7262c0	-0.059176207
42	0x3dbc15e6	0.09183864
43	0x3e478175	0.19482978
44	0x3e012b9d	0.12614293
45	0xbdc3607c	-0.09539887
46	0x3e00fe25	0.12596948
47	0x3d1fed8c	0.0390449
48	0x3de2f4ea	0.1108187
49	0xbe083270	-0.1330049
50	0xbe5d333b	-0.21601574
51	0xbdacab22	-0.084310785
52	0xbe2b652b	-0.16737811
53	0x3e375a87	0.17905627
54	0x3d80b962	0.06285359
55	0x3db91dc6	0.09038882
56	0x3d8d5722	0.06901385
57	0xbb78c840	-0.0037961155
58	0x3e2ee0b9	0.17077912
59	0xbe1ec496	-0.15504679
60	0x3c611cf0	0.013739809
61	0xbe188460	-0.14894247
62	0x3d89ce42	0.06728794
63	0xbd99e870	-0.07515037
64	0x3d88f0ca	0.06686552
65	0xbd3a384c	-0.045463845
66	0x3e3954f5	0.18098815
67	0xbe047139	-0.12933816
68	0xbe0544a8	-0.13014472
69	0xbe0546b7	-0.13015257
70	0x3e48fc2f	0.1962745
71	0x3d94eeee	0.07272135
72	0x3e570515	0.20998032
73	0xbe386986	-0.18009004
74	0xbe5da3ca	-0.21644512
75	0xbe2ed2bd	-0.17072578
76	0xbe1650da	-0.1467928
77	0x3db5043e	0.088387
78	0x3da0071a	0.078138545
79	0x3e39ac9f	0.18132256
80	0xbde6cbb9	-0.11269326
81	0xbe1854fe	-0.14876172
82	0x3ded1eee	0.11578165
83	0xbdb4a4a4	-0.08820465
84	0x3e079ec7	0.13244162
85	0xbd541aac	-0.05178325
86	0x3dffa736	0.12483065
87	0xbe2d9e13	-0.16954832
88	0xbde1887c	-0.110123605
89	0x3d88409e	0.0665295
90	0x3d3cf5dc	0.046132907
91	0xbd63e328	-0.055636555
92	0x3e0531dd	0.13007303
93	0x3e17e827	0.14834653
94	0xbe220b30	-0.1582458
95	0xbdee9757	-0.116499595
96	0x3e4c9bff	0.19981383
97	0xbd96cd52	-0.073633805
98	0xbd9e6fe0	-0.07736182
99	0xbe5836c7	-0.21114646
100	0xbdffeea4	-0.12496689
101	0x3d5f4794	0.05451162
102	0xbcebf4d8	-0.028803274
103	0xbe2233f4	-0.15840131
104	0x3ba7ba80	0.005118668
105	0xbe18a358	-0.1490606
106	0xbe3d941e	-0.18513533
107	0xbdf618c6	-0.12016444
108	0xbe439214	-0.19098693
109	0xbe0e484a	-0.13894764
110	0x3e5f5e23	0.21813254
111	0x3d28d1fc	0.04121588
112	0x3d89b842	0.067245975
113	0xbe5069c0	-0.2035284
114	0xbe12c26d	-0.1433198
115	0xbd94c1b6	-0.0726351
116	0x3d0bc48c	0.03412299
117	0xbe449f78	-0.19201458
118	0xbdc08fc3	-0.0940242
119	0xbe05c68b	-0.1306402
120	0x3a1e8700	0.0006047338
121	0xbda64bf8	-0.08119959
122	0xbc77c080	-0.015121579
123	0xbe176b7a	-0.14787093
124	0xbe1960e6	-0.1497837
125	0xbe025d37	-0.12730871
126	0xbd98f9ea	-0.07469542
127	0xbe305e6e	-0.17223522
128	0x3e3b5c43	0.18296914
129	0xbd316428	-0.043308407
130	0x3e404293	0.18775396
131	0x3d8b3fce	0.06799279
132	0xbe3d389c	-0.18478626
133	0x3e1aa389	0.15101446
134	0xbd75ee18	-0.060041517
135	0xbdab4ff6	-0.08364861
136	0xbe397bc7	-0.18113624
137	0xbe5e267a	-0.21694365
138	0x3d7fbb44	0.06243445
139	0xbd433fe8	-0.047668368
140	0x3dadfe12	0.08495726
141	0xbe3761a7	-0.17908345
142	0x3e25e64b	0.16201131
143	0xbe240730	-0.16018367
144	0xbd1a56c8	-0.037680417
145	0x3d3ab124	0.04557909
146	0x3de6b7de	0.11265539
147	0x3e3465cb	0.17616956
148	0x3e4b8efb	0.19878761
149	0xbe312eb9	-0.1730298
150	0x3d60f204	0.054918304
151	0xbdc03a4a	-0.09386118
152	0xbcc3e5f8	-0.023913369
153	0xbe274103	-0.16333394
154	0x3e4b8939	0.19876565
155	0xbe240148	-0.16016114
156	0x3deeda0a	0.116626814
157	0x3d9d0fde	0.07669042
158	0x3d9139e6	0.070911214
159	0xbdf19ece	-0.11797868
160	0x3e4b1c21	0.19834949
161	0x3d446adc	0.04795347
162	0x3ce5f658	0.028071567
163	0xbe44ebc0	-0.19230556
164	0x3dbb9b96	0.09160535
165	0xbd06176c	-0.03273718
166	0xbdccbd8d	-0.099970914
167	0x3e3fef9f	0.18743752
168	0x3d4746b4	0.048651412
169	0xbdf743d1	-0.12073482
170	0xbde232dc	-0.11044857
171	0xbc2abd80	-0.010421157
172	0x3df98992	0.121844426
173	0xbd6466c0	-0.055762053
174	0xbdfefeea	-0.12450965
175	0xbd990a8e	-0.07472716
176	0xbe26f00d	-0.1630251
177	0x3d9f61fa	0.077823594
178	0x3e2cf697	0.16890942
179	0xbe525ea3	-0.20543914
180	0x3d4f9724	0.05068125
181	0x3de6dec2	0.112729564
182	0x3d22136c	0.039569303
183	0xbd9f27e0	-0.077712774
184	0x3de942e2	0.1138971
185	0x3deadb72	0.11467637
186	0x3da71ca6	0.08159761
187	0xbd1d103c	-0.03834556
188	0xbd6caf50	-0.05778438
189	0x3cbf3e58	0.023345158
190	0xbd1de5a4	-0.03854908
191	0xbd852e02	-0.06502916
192	0x3e0ed585	0.13948639
193	0x3e400989	0.18753637
194	0xbcb0f8c0	-0.021602988
195	0xbd481fa4	-0.0488583
196	0x3b50afc0	0.0031843036
197	0xbc557950	-0.013029411
198	0x3d56e274	0.052462056
199	0x3d7a7a84	0.061151996
200	0xbe4af462	-0.19819787
201	0xbda4ed40	-0.08053064
202	0x3e3c2d9b	0.18376772
203	0x3dae189a	0.08500786
204	0xbc31d370	-0.010853633
205	0xbe06b8ee	-0.13156483
206	0xbe08b603	-0.13350682
207	0xbe4829e8	-0.19547236
208	0xbd91ad0a	-0.07113083
209	0x3d96ec66	0.07369308
210	0x3e0e7ad5	0.13914044
211	0x3dce5656	0.10075061
212	0xbe458596	-0.1928924
213	0xbe0660a6	-0.13122806
214	0xbd0d0f4c	-0.034438416
215	0x3e5828c1	0.21109296
216	0x3d014c40	0.03156686
217	0xbd67792c	-0.056512043
218	0x3db8e4c2	0.09028007
219	0xbdaa384a	-0.083115175
220	0xbe10a1f2	-0.14124277
221	0x3e2318d7	0.15927444
222	0xbdcb35fd	-0.09922407
223	0xbd332e68	-0.04374543
224	0xbe5e4b4b	-0.2170841
225	0x3e158d4d	0.14604683
226	0x3e294c1f	0.16532944
227	0x3da2e02a	0.07952912
228	0xbe1bcf3b	-0.15215771
229	0xbe5c896a	-0.21536794
230	0xbe357c4d	-0.17723198
231	0x3e26a16b	0.16272514
232	0x3dd6906e	0.104767665
233	0x3e3c09d9	0.18363132
234	0x3dea1f72	0.11431779
235	0x3d62380c	0.05522923
236	0xbb0c0c00	-0.0021369457
237	0xbe29f060	-0.16595602
238	0xbe3f733c	-0.18696302
239	0xbe510229	-0.2041098
240	0x3db6f2b2	0.08933009
241	0xbddb6b2b	-0.107138
242	0xbd33e238	-0.04391691
243	0xbe009980	-0.12558556
244	0xbd22e008	-0.039764434
245	0xbe1d4688	-0.15358937
246	0xbe120253	-0.14258699
247	0x3d943eb6	0.07238524
248	0xbd84d1f2	-0.064853564
249	0x3e09f2d1	0.13471533
250	0xbd8f5f6a	-0.07000621
251	0xbe23eb5b	-0.1600775
252	0xbd1db468	-0.038502127
253	0xbdd8a37a	-0.10578056
254	0xbd88ba7a	-0.066761926
255	0xbe54ba72	-0.20774248

i2h.bias f4 [20]
0	0xbc2caf60	-0.0105398595
1	0xbda37652	-0.07981552
2	0xbe2783d2	-0.16358879
3	0x3e048b5f	0.12943791
4	0x3e33b1bf	0.17548274
5	0x3d10ffa4	0.035400048
6	0xbd1ba044	-0.037994638
7	0xbe4efafe	-0.20212933
8	0xbda2c832	-0.079483405
9	0x3d638dcc	0.05555515
10	0x3dd2bb66	0.1028965
11	0xbce1fd38	-0.027586564
12	0xbdb0afee	-0.08627306
13	0x3df907b2	0.12159671
14	0xbe31f5a8	-0.17378867
15	0x3e0d3a47	0.13791762
16	0xbdad6188	-0.08465868
17	0x3b5ae280	0.0033399165
18	0xbd30a214	-0.04312332
19	0x3cd8bb50	0.026456505

h2o.weight f4 [1, 20]
0	0xbd8a640a	-0.06757362
1	0x3e267e22	0.16259053
2	0xbbbe7c20	-0.0058131367
3	0x3e32bc8a	0.17454734
4	0x3e5c2746	0.21499357
5	0xbddf1b85	-0.10893921
6	0xbe2709c4	-0.16312319
7	0x3e37b4ae	0.17940018
8	0x3e336d3c	0.17522138
9	0xbe2ed4fd	-0.17073436
10	0xbc8d9a68	-0.01728554
11	0xbe61cbf1	-0.22050454
12	0xbe3b6ff8	-0.18304431
13	0x3d30e5e0	0.043187976
14	0x3d73a8c8	0.059487134
15	0x3d4226f0	0.047400415
16	0xbd79461c	-0.060857877
17	0x3e533ee8	0.20629466
18	0x3d02f3d8	0.03197083
19	0xbe071d1b	-0.13194697
